snoRNA-disease/MSNF-MF/MF/GAT/gmodel_feat_dis.npy (npy, 10128 bytes, 1 tensors)

array f4 [50, 50]
0	0x3d66311c	0.056199178
1	0xbc8d1608	-0.01722242
2	0x3d71bfb5	0.059020717
3	0x3c232405	0.009957318
4	0xbd9ca441	-0.076485164
5	0xbc60e14c	-0.01372559
6	0x3d6925fc	0.05692099
7	0x3d88e5c4	0.06684449
8	0xbe2ad36e	-0.16682217
9	0x3dc1f7a1	0.094710596
10	0xbccd9ecc	-0.025100134
11	0x3d1347dc	0.035957202
12	0xbd121c6f	-0.035671648
13	0x3c002d40	0.007823288
14	0xbe1c3bb6	-0.15257153
15	0xbdf7b71a	-0.12095471
16	0xbe252f73	-0.16131382
17	0x3e0a89b3	0.1352909
18	0x3d36f471	0.04466671
19	0x3dd4f7c6	0.103988215
20	0x3dbe215a	0.09283705
21	0xbe1a7d56	-0.15086874
22	0xbd3408cb	-0.043953698
23	0xbbbbca50	-0.0057309046
24	0xbe03fa1e	-0.12888381
25	0x3bb27bc0	0.005446881
26	0x3cb23978	0.021755919
27	0x3d3359e0	0.043786883
28	0x3cc0448a	0.023470182
29	0x3cc30d0a	0.023809928
30	0xbc1c7ed3	-0.009551722
31	0x3de1c284	0.11023429
32	0xbd699c28	-0.057033688
33	0xbe0ebee6	-0.1394001
34	0xbcda31e4	-0.026635118
35	0xbdef349a	-0.11679955
36	0x3dda22d4	0.10651174
37	0xbca17e76	-0.019713622
38	0x3d19d34a	0.037555017
39	0xbddc788e	-0.107651815
40	0x3a98ec00	0.0011667013
41	0xbd7f8f4b	-0.062392514
42	0x3d6b4608	0.057439834
43	0xbe02e2d6	-0.12781844
44	0x3dbbaa56	0.091633484
45	0x3dc7e2ca	0.097600535
46	0x3de50425	0.11182431
47	0xbb3576d0	-0.0027689226
48	0xbe1839de	-0.14865825
49	0xbea2736e	-0.3172869
50	0x3d333e48	0.043760568
51	0xbc2bce88	-0.010486253
52	0x3d94e5cc	0.07270393
53	0xbca3f908	-0.020016208
54	0xbd886892	-0.0666057
55	0xbd07bd60	-0.033139586
56	0x3d354ff2	0.044265695
57	0x3d785118	0.060624212
58	0xbe1b4cf0	-0.15166068
59	0x3d95de8c	0.07317838
60	0xbd35eb9c	-0.044414148
61	0x3d3d6af6	0.046244584
62	0xbd525976	-0.051354848
63	0x39a8f280	0.00032224134
64	0xbdfa63dc	-0.12226078
65	0xbdcfc9f3	-0.10145941
66	0xbe154142	-0.14575675
67	0x3e0093e6	0.12556419
68	0x3d4b8746	0.049689554
69	0x3ded71fd	0.11594007
70	0x3e0b14de	0.13582179
71	0xbe229f3e	-0.15881059
72	0xbcb73d0c	-0.022367977
73	0xbb00c250	-0.001964707
74	0xbe29390d	-0.1652567
75	0x3d55fd3f	0.052243467
76	0xbb4c5ac0	-0.003118202
77	0xbcad5165	-0.021156976
78	0xbaa1d1b0	-0.0012345817
79	0x3b9d5bf8	0.0048022233
80	0xbd0dc458	-0.034611076
81	0x3e1492a6	0.14509067
82	0xbdad9d10	-0.08477223
83	0xbe2bc888	-0.16775715
84	0xbd4079bc	-0.046991095
85	0xbd8f94e2	-0.07010819
86	0x3e081e98	0.1329292
87	0xbd0364fb	-0.032078724
88	0x3bfbd000	0.0076847076
89	0xbe08f6ba	-0.13375369
90	0xbc1fb849	-0.009748527
91	0xbd99cd12	-0.07509817
92	0x3d9c234e	0.07623921
93	0xbe2056be	-0.1565809
94	0x3d814d0a	0.06313522
95	0x3d87e3b6	0.06635229
96	0x3d8e93f2	0.06961812
97	0xbc62c148	-0.013840027
98	0xbde157bf	-0.11003064
99	0xbe9cc684	-0.30620205
100	0x3d0bb5f7	0.034109082
101	0xbcc1244c	-0.023576878
102	0x3da6fdf5	0.08153907
103	0x3c4e1150	0.01257737
104	0xbd9b66ec	-0.0758799
105	0xbb127550	-0.0022347756
106	0x3d326d06	0.043561004
107	0x3db3fea4	0.08788803
108	0xbe1affb2	-0.15136603
109	0x3da0267c	0.0781984
110	0xbd22c283	-0.039736282
111	0x3d303214	0.04301651
112	0xbd2b160c	-0.041769072
113	0x3b91fe58	0.004455369
114	0xbe1c46df	-0.1526141
115	0xbdf8bae9	-0.12145025
116	0xbe22fbe6	-0.15916404
117	0x3e069c84	0.13145643
118	0x3d85defe	0.06536673
119	0x3ddb39fa	0.107044175
120	0x3db593be	0.0886607
121	0xbe19c648	-0.15017045
122	0xbd19e3b1	-0.03757066
123	0x3c14d228	0.009083308
124	0xbdfc54f6	-0.123208925
125	0x3ca7f8a7	0.020504309
126	0x3c48ba4c	0.012251448
127	0x3cbcfbb0	0.023069233
128	0x3b9a7f86	0.004714909
129	0x3c096380	0.008385539
130	0xbcd95397	-0.026529117
131	0x3dfff29a	0.124974445
132	0xbd8e8583	-0.06959059
133	0xbe1ef086	-0.1552144
134	0xbcd15d3a	-0.02555715
135	0xbdcc44c3	-0.09974053
136	0x3ded33d8	0.11582154
137	0xbcd5177c	-0.026012175
138	0x3d2615c1	0.04054809
139	0xbdd207d8	-0.10255402
140	0xbb084338	-0.0020792019
141	0xbd7256a4	-0.05916466
142	0x3d8fe09a	0.07025261
143	0xbe02089b	-0.12698595
144	0x3d8fc974	0.07020846
145	0x3dc7cc98	0.0975582
146	0x3dbd4997	0.09242552
147	0xbc93262a	-0.017962534
148	0xbe0b408d	-0.13598843
149	0xbea61a40	-0.32441902
150	0x3d3cbbcb	0.04607753
151	0xbc3fc850	-0.011705473
152	0x3d994900	0.07484627
153	0xbcf56f08	-0.02996017
154	0xbd995fa0	-0.07488942
155	0xbd109b65	-0.035304446
156	0x3d30b948	0.043145448
157	0x3d5f2090	0.054474413
158	0xbe046b84	-0.12931639
159	0x3d756d85	0.0599189
160	0xbd103b80	-0.035212994
161	0x3d050760	0.032477736
162	0xbd4de854	-0.050270393
163	0x3c0594f4	0.008153189
164	0xbdef56fb	-0.11686512
165	0xbdd406b9	-0.10352845
166	0xbe0ce9f9	-0.13761128
167	0x3e037fdb	0.12841742
168	0x3d5c6490	0.05380684
169	0x3de2a520	0.11066651
170	0x3e09811a	0.13428155
171	0xbe1a2e82	-0.15056804
172	0xbcb39f4c	-0.021926545
173	0xb8986800	-7.267296e-05
174	0xbe2c01a6	-0.16797504
175	0x3d33ddfe	0.04391288
176	0xbc359960	-0.011083931
177	0xbcf3b08d	-0.029747272
178	0xbb804d64	-0.0039154757
179	0x3c2b832c	0.0104682855
180	0xbc8174a0	-0.015802681
181	0x3e238638	0.15969169
182	0xbd94cf67	-0.07266121
183	0xbe26f3c3	-0.16303925
184	0xbd2e5741	-0.04256368
185	0xbd9c3435	-0.07627145
186	0x3e07fa00	0.13278961
187	0xbcbd3260	-0.02309531
188	0x3b06b480	0.0020554364
189	0xbe037c39	-0.12840356
190	0xbc9b1660	-0.018931568
191	0xbd89616f	-0.06708037
192	0x3da93507	0.08262067
193	0xbe11a80f	-0.14224266
194	0x3d824e35	0.06362573
195	0x3d7e946a	0.062153257
196	0x3da64ec3	0.08120491
197	0xbc52d0f4	-0.012867201
198	0xbdfa762f	-0.12229573
199	0xbe959652	-0.29216248
200	0x3d1b3a1e	0.03789722
201	0x3a9acc40	0.0011810139
202	0x3d525992	0.051354952
203	0xbafbf780	-0.0019223541
204	0xbd663b08	-0.05620864
205	0xbc81d304	-0.01584769
206	0x3d62ce32	0.055372424
207	0x3d94c8ae	0.07264839
208	0xbe2dd90f	-0.16977333
209	0x3db7d3ba	0.089759305
210	0xbd7b4c54	-0.06135209
211	0x3d7bdb38	0.06148836
212	0xbd47a1ea	-0.048738398
213	0xbc683f88	-0.014175303
214	0xbdf97fec	-0.12182602
215	0xbda809c7	-0.0820499
216	0xbe369b3b	-0.17832653
217	0x3e05373b	0.1300935
218	0x3d36b5c8	0.044606954
219	0x3df7b512	0.12095083
220	0x3e0da1f0	0.13831306
221	0xbe3cb838	-0.18429649
222	0xbc8320ec	-0.01600691
223	0x3c97a324	0.018510409
224	0xbe24e1bc	-0.16101736
225	0x3d3df8bd	0.046379793
226	0xbbb6a1c0	-0.0055734813
227	0xbc487286	-0.012234336
228	0x3b3c3098	0.0028715488
229	0xbbc3d2a4	-0.005976038
230	0xbd431602	-0.04762841
231	0x3de84efb	0.11343189
232	0xbd9a8532	-0.07544936
233	0xbe348194	-0.17627555
234	0xbd22322c	-0.03959863
235	0xbd833453	-0.064064644
236	0x3e0b3e0e	0.1359789
237	0xbd0a57a0	-0.033774972
238	0x3c9d67e4	0.019214578
239	0xbdf1bfc0	-0.118041515
240	0xbca9c9a2	-0.020726029
241	0xbdc2cf1b	-0.095121585
242	0x3d4aff30	0.049559772
243	0xbe2ea30f	-0.1705439
244	0x3dac9c0c	0.08428201
245	0x3d9d384b	0.07676753
246	0x3d7257a4	0.059165612
247	0xbc708de8	-0.014682271
248	0xbdc6335a	-0.09677763
249	0xbea7b751	-0.32757047
250	0x3d473606	0.048635505
251	0xbc360390	-0.011109248
252	0x3d948171	0.072512515
253	0xbcf3cc07	-0.029760374
254	0xbd9d3627	-0.07676344
255	0xbd073152	-0.03300602
