snoRNA-disease/MSNF-MF/MF/GAT/gmodel_feat_snoR.npy (npy, 377124 bytes, 1 tensors)

array f4 [307, 307]
-0.11852162 0.009863354 0.1583603 -0.11415307 0.22577955 -0.070424065 -0.2245386 0.0025305972
0.083086595 0.09979855 0.026462115 0.03220442 -0.062079243 0.05187438 -0.20368236 -0.09195271
-0.12365119 -0.040198438 0.20433015 0.040994164 -0.031052897 0.021118771 0.27557546 -0.085195534
-0.0733991 0.08030296 -0.09665127 0.032891717 -0.050336376 0.062633164 0.10872607 0.09860096
0.00736171 -0.09936838 0.07256027 0.041466612 0.0039732195 0.11391081 -0.13178429 0.041548606
0.0017923568 -0.01642149 0.02649447 0.059389964 -0.07370308 -0.12356141 0.13599987 -0.11043344
0.013119226 0.0103616305 -0.035355568 -0.074158184 -0.11799528 -0.020913307 -0.13415898 -0.27391073
-0.039373588 -0.17128594 0.18955553 -0.02702652 -0.00075560436 -0.005060151 -0.116365924 -0.025079701
-0.07865434 0.009129811 0.10124143 0.1095465 0.10864252 0.012046028 0.03647995 0.029543422
-0.17469326 -0.07647824 -0.034791864 0.054260157 -0.14508586 -0.022571348 0.092733264 -0.008656137
0.07224494 0.10902632 0.07451424 0.01676258 -0.0060290433 0.07567049 -0.0074541345 0.09778098
-0.031829428 -0.029089205 -0.00045408867 0.099288605 -0.03573936 0.13304897 -0.16688451 -0.19275397
-0.025767758 0.055868708 -0.19981422 0.24146071 0.1150952 0.017324876 -0.10440259 -0.00862982
0.008441918 -0.0062385863 -0.05674068 -0.023863174 0.11864416 0.17008375 -0.12074205 0.17284733
-0.048127685 -0.005136255 0.056543298 -0.051730726 0.17576417 -0.24695358 0.06533763 -0.09407206
0.08691034 0.07055893 -0.07751496 -0.03580664 0.11377809 -0.1736299 -0.07049836 -0.21439415
-0.19275087 -0.08898248 0.17717996 0.18451083 -0.06783078 -0.14789136 0.09834487 0.26381254
-0.06411952 -0.1362278 -0.11533879 0.05262427 -0.023037411 -0.19708888 -0.08488801 -0.075196944
-0.010002799 -0.078567274 -0.014660854 -0.02183301 0.0038722036 0.3733723 0.19075152 -0.06690131
0.1387886 0.030247986 0.16516404 -0.07416102 -0.06675399 0.017107826 -0.19537447 0.039964892
0.0028050132 0.030808136 -0.16926745 0.110121876 -0.007912811 0.067620546 -0.070911966 0.01441819
-0.057857107 -0.034813665 0.009615343 -0.20210552 0.030392025 0.10680683 -0.2360344 0.10173898
-0.05767537 -0.18494965 0.11642115 -0.08078143 -0.07298821 -0.019918032 0.14346994 0.0907245
-0.118311256 -0.03338827 -0.046052188 0.12643392 -0.12947592 0.107077524 0.20412442 0.0005517155
0.07434619 -0.037598547 0.15136848 0.10235126 0.0019989684 -0.08244077 -0.087132856 -0.05674653
-0.10189752 -0.06204452 0.16669263 0.0932336 -0.06156998 -0.0070893634 -0.04388491 -0.039331023
-0.11641846 -0.096273266 -0.08143318 0.10974813 0.16417132 -0.053186074 0.30452037 0.12104812
-0.023359444 0.11178551 -0.053310677 -0.043533206 -0.23105413 0.106324226 -0.0959498 0.014128871
0.13424945 -0.07637173 0.095818 -0.14189565 -0.004012443 -0.0806084 0.16531652 0.02270505
0.05407629 -0.10410372 0.04349547 0.014796272 -0.09406307 -0.11248933 0.16723897 0.0016581677
-0.26144117 -0.07667768 0.068730585 0.02354937 -0.055551343 -0.11539477 0.062580444 -0.11730771
-0.07035497 -0.094969675 -0.13058811 -0.018612249 -0.008301713 -0.06671472 0.18037026 0.12340137
00000000: 77bb f2bd e899 213c 3429 223e 16c9 e9bd
00000010: c132 673e 7e3a 90bd 72ed 65be 60d8 253b
00000020: 4e29 aa3d 2f63 cc3d 14c7 d83c c8e8 033d
00000030: ce46 7ebd 3b7a 543d 1c92 50be b451 bcbd
00000040: d63c fdbd 1ea7 24bd ec3b 513e 7fe9 273d
00000050: a562 febc 4601 ad3c 3a18 8d3e ff7a aebd
00000060: 4452 96bd e175 a43d 1af1 c5bd 77b9 063d
00000070: 842d 4ebd d145 803d c6ab de3d 4def c93d
00000080: 803a f13b a681 cbbd 7b9a 943d e5d8 293d
00000090: c831 823b 124a e93d 76f2 06be df2e 2a3d
000000a0: 84ed ea3a 5c86 86bc ee0a d93c e442 733d
000000b0: a4f1 96bd c40d fdbd 8d43 0b3e ed2a e2bd
000000c0: 06f2 563c d4c3 293c 00d1 10bd 3fe0 97bd
000000d0: 82a7 f1bd 6252 abbc f960 09be 073e 8cbe
000000e0: 3346 21bd 9565 2fbe d81a 423e b866 ddbc
000000f0: c013 46ba a0cf a5bb 4251 eebd f273 cdbc
00000100: 8715 a1bd 3495 153c ab57 cf3d ea59 e03d
00000110: f87f de3d b45c 453c 006c 153d 0c05 f23c
00000120: cae2 32be a0a0 9cbd ea81 0ebd e63f 5e3d
00000130: 6391 14be 8ce7 b8bc f0ea bd3d 78d2 0dbc
00000140: 28f5 933d 3149 df3d ec9a 983d ae51 893c
00000150: 488f c5bb 21f9 9a3d d041 f4bb 6541 c83d
00000160: 935f 02bd 7c4c eebc c012 eeb9 d357 cb3d
00000170: 6f63 12bd fd3d 083e c6e3 2abe 4c61 45be
00000180: e816 d3bc 96d6 643d 199c 4cbe 7a41 773e
00000190: 08b7 eb3d e6ec 8d3c 06d1 d5bd 1764 0dbc
000001a0: f84f 0a3c 0e6d ccbb ea68 68bd b47c c3bc
000001b0: b6fb f23d 6f2a 2e3e 9c47 f7bd e4fe 303e
000001c0: 8921 45bd 084e a8bb f299 673d 99e3 53bd
000001d0: 86fb 333e 66e1 7cbe bccf 853d daa8 c0bd
000001e0: 0cfe b13d 3381 903d 2ac0 9ebd fca9 12bd
000001f0: 7d04 e93d 09cc 31be 7261 90bd 248a 5bbe
00000200: 7c60 45be 723c b6bd aa6e 353e 68f0 3c3e
00000210: ddea 8abd d570 17be 0969 c93d 7012 873e
00000220: 1851 83bd 4d7f 0bbe be36 ecbd 8c8c 573d
00000230: f4b8 bcbc abd1 49be c4d9 adbd db00 9abd
00000240: c8e2 23bc e1e7 a0bd 1434 70bc 24db b2bc
00000250: ccc4 7d3b a72a bf3e 5e54 433e 8e03 89bd
00000260: 991e 0e3e a0ca f73c c320 293e bce1 97bd
00000270: 51b6 88bd b625 8c3c 3f10 48be 3ab2 233d
00000280: 50d4 373b 5861 fc3c 7254 2dbe 9487 e13d
00000290: bca4 01bc a47c 8a3d 4b3a 91bd 463a 6c3c
000002a0: 93fb 6cbd c698 0ebd ac89 1d3c c0f4 4ebe
000002b0: b2f8 f83c 8abd da3d 00b3 71be 875c d03d
000002c0: 023d 6cbd 7163 3dbe 366e ee3d bc70 a5bd
000002d0: d87a 95bd 242b a3bc c9e9 123e c4cd b93d
000002e0: 2c4d f2bd 23c2 08bd 38a1 3cbd e577 013e
000002f0: 5695 04be 764b db3d fe05 513e 00a1 103a
00000300: d142 983d ef00 1abd 5700 1b3e 8a9d d13d
00000310: 2001 033b b5d6 a8bd b672 b2bd 0d6f 68bd
00000320: a6af d0bd 6522 7ebd 79b1 2a3e 42f1 be3d
00000330: ce30 7cbd e44d e8bb aac0 33bd 9119 21bd
00000340: cd6c eebd eb2a c5bd 70c6 a6bd a1c3 e03d
00000350: 871c 283e a4d9 59bd 18ea 9b3e 14e8 f73d
00000360: 4e5c bfbc cdef e43d 4c5c 5abd e04f 32bd
00000370: 7499 6cbe 84c0 d93d 5481 c4bd c87c 673c
00000380: b078 093e c868 9cbd 3a3c c43d 184d 11be
00000390: d07a 83bb 0416 a5bd bc48 293e f1ff b93c
000003a0: 1a7f 5d3d 5534 d5bd 4e28 323d 106c 723c
000003b0: 24a4 c0bd ce60 e6bd b140 2b3e e056 d93a
000003c0: 9edb 85be 3009 9dbd 9fc2 8c3d 9cea c03c
000003d0: ce89 63bd 1854 ecbd 2d2a 803d 063f f0bd
000003e0: 4416 90bd 767f c2bd e4b8 05be b778 98bc
000003f0: e803 08bc baa1 88bd fbb2 383e dcb9 fc3d
